mnist_ffn.pth (torch, 44711 bytes, 5 tensors)

lstm.weight_ih_l0 f4 [200, 1]
0	0x3c16d46a	0.009205917
1	0x3d19cfde	0.037551753
2	0x3c544fd7	0.012958488
3	0xbe03cc65	-0.12870939
4	0x3d5f7a9c	0.05456029
5	0x3b4d3398	0.003131127
6	0x3c53d325	0.012928759
7	0x3d8260af	0.06366097
8	0x3c252207	0.0100789135
9	0x3c082359	0.008309209
10	0xbd438d1f	-0.047742005
11	0x3c0ce279	0.008598917
12	0xbdb70bee	-0.08937822
13	0x3c597c68	0.01327429
14	0xbd0cc284	-0.034365192
15	0x3e4c2058	0.19934213
16	0x3d85f344	0.0654054
17	0x3ce25b6b	0.027631482
18	0xbd03890d	-0.032113124
19	0x3c6cb7af	0.01444809
20	0x3e58cca9	0.21171822
21	0x3d897994	0.06712642
22	0x3d81b62a	0.06333573
23	0x3ce89fcf	0.028396515
24	0x3c14f80e	0.009092344
25	0x3c750823	0.014955553
26	0x3d0af5ab	0.033925693
27	0x3cd34852	0.025791321
28	0x3c3037f3	0.010755527
29	0x3c4e1dc1	0.012580336
30	0x3c6e8112	0.01455714
31	0xbd6b70e5	-0.05748071
32	0x3d8b3b46	0.06798415
33	0x3e5210de	0.20514247
34	0x3d794265	0.060854334
35	0x3df3e35b	0.11908599
36	0x3cd9da1d	0.026593262
37	0x3d866c3f	0.06563615
38	0xbd3ea686	-0.046545528
39	0x3d837806	0.06419377
40	0x3d2b88f6	0.041878663
41	0x3e4d03f4	0.20021039
42	0xbd622487	-0.055210616
43	0x3e5493a8	0.20759451
44	0x3e569d5b	0.20958464
45	0xbc5d60e3	-0.013511869
46	0x3e4c105a	0.19928113
47	0xbe2e965e	-0.17049548
48	0x3e49f735	0.19723208
49	0x3dfbe16c	0.12298855
50	0x3e0fdb78	0.14048564
51	0x3cfe011a	0.031006385
52	0x3dfa0371	0.12207688
53	0xbe0d26e7	-0.13784371
54	0xbd05f2a0	-0.03270209
55	0x3e534828	0.20632994
56	0x3d24b00e	0.04020696
57	0x3e683f26	0.22680339
58	0x3cfbe408	0.030748382
59	0x3e1b72b3	0.15180473
60	0xbd8c2235	-0.06842462
61	0x3d8284c3	0.063729785
62	0xbe1f2a19	-0.15543403
63	0x3d15767a	0.03648994
64	0xbd675ccf	-0.056484994
65	0x3e53c410	0.2068026
66	0x3d33c9c7	0.0438936
67	0x3e2500c5	0.16113575
68	0x3d364d17	0.044507112
69	0x3ddfc171	0.10925568
70	0x3e46b5c0	0.1940527
71	0x3dc3757c	0.09543893
72	0x3e52058b	0.20509927
73	0x3e62f7d9	0.22164859
74	0xbcf71407	-0.030160917
75	0x3d464a1f	0.04841053
76	0x3d1c29f0	0.038125932
77	0x3d099fb6	0.033599578
78	0xbd91747a	-0.07102294
79	0x3dfd7652	0.123760834
80	0x3e00a408	0.12562573
81	0xbd2b476b	-0.041816156
82	0x3e401784	0.1875897
83	0x3e137155	0.14398701
84	0x3e507620	0.20357561
85	0x3e428d29	0.18999161
86	0x3cda0c61	0.02661723
87	0xbdeb6a28	-0.11494857
88	0x3d5f1002	0.054458626
89	0x3d1e4775	0.038642365
90	0xbe1194da	-0.14216939
91	0x3d06728a	0.032824077
92	0xbe4ba498	-0.19887006
93	0xbdcc6ad1	-0.09981311
94	0x3d1afa5d	0.03783642
95	0x3e26bea3	0.1628366
96	0x3d3678e2	0.044548877
97	0xbe52f1ea	-0.20600095
98	0x3d91326a	0.07089694
99	0x3e1b1cfb	0.15147774
100	0xbde27e9e	-0.110593066
101	0xbde20fbe	-0.11038159
102	0x3dd65d4b	0.10467013
103	0x3d8ad691	0.067792065
104	0xbe0c86f1	-0.13723351
105	0x3c570ba7	0.013125337
106	0x3dd79aad	0.10527549
107	0xbde8927f	-0.11356067
108	0x3de3fb48	0.111319125
109	0x3d23bc74	0.039974645
110	0xbdd94d22	-0.10610415
111	0x3e060cd3	0.1309083
112	0xbde93dde	-0.11388753
113	0xbd12d375	-0.035846192
114	0x3e071c05	0.13194282
115	0xbe109cf4	-0.14122373
116	0x3e021745	0.12704189
117	0xbe09e0b2	-0.1346462
118	0xbcfb5ab5	-0.0306829
119	0xbd10a0ec	-0.035309717
120	0x3dd49eb6	0.10381834
121	0xbddde328	-0.10834342
122	0x3e044f4e	0.12920877
123	0x3ddda92e	0.10823284
124	0x3dce612b	0.10077127
125	0xbde2879c	-0.11061022
126	0x3d128cc6	0.035778783
127	0x3df524fe	0.11969946
128	0x3e0f4f83	0.13995175
129	0x3de4565b	0.111492835
130	0x3dd1a1f0	0.10235965
131	0x3ddd8b6f	0.108176105
132	0xbde5b398	-0.112158954
133	0xbddeef82	-0.10885526
134	0xbdd826d8	-0.10554284
135	0xbddb7ffe	-0.10717772
136	0x3e08eae9	0.13370861
137	0xbd6fc76b	-0.05853979
138	0xbe0eca6d	-0.13944407
139	0x3de2d97b	0.11076637
140	0xbd46cc14	-0.048534468
141	0xbddb657a	-0.107127145
142	0x3e014528	0.12624037
143	0xbde14943	-0.11000302
144	0xbcb30852	-0.021854553
145	0x3de6064e	0.11231671
146	0xbdd874b5	-0.10569135
147	0x3e102159	0.14075221
148	0xbd8842d6	-0.06653373
149	0x3de7aa5e	0.11311792
150	0x3cdfff2a	0.027343351
151	0x3e4f7226	0.20258388
152	0x3d06bc7d	0.0328946
153	0xbe0a1360	-0.13483953
154	0x3cc039d7	0.02346508
155	0xbd371269	-0.04469529
156	0x3e52b9d3	0.20578699
157	0x3d09c5c7	0.03363588
158	0x3e4b0543	0.19826226
159	0x3d03d36f	0.03218406
160	0x3c831f1e	0.016006049
161	0x3d284f22	0.041091092
162	0x3bb4b312	0.005514511
163	0x3e4d7ec3	0.20067887
164	0x3c2f801d	0.010711697
165	0x3e50a8c5	0.2037688
166	0x3c56617a	0.013084764
167	0x3cccc6dd	0.02499717
168	0x3e4d5873	0.20053272
169	0x3d039e58	0.03213343
170	0x3d256bee	0.040386133
171	0x3c913424	0.017725058
172	0x3c8ec775	0.017429093
173	0x3cb09331	0.021554561
174	0x3d06d33f	0.032916304
175	0x3d7c16ad	0.061545063
176	0x3e4d3b85	0.20042236
177	0x3c662edc	0.014049258
178	0x3d3a5eb9	0.04550049
179	0x3d0c5143	0.034257185
180	0x3d02168f	0.031759795
181	0x3d0d08c2	0.03443218
182	0x3d084821	0.033271912
183	0x3cd2858a	0.025698442
184	0x3d5f5ec3	0.05453373
185	0x3d1f7af4	0.038935617
186	0x3c6b02e6	0.014343953
187	0x3e4dddd2	0.20104149
188	0x3e4ebc84	0.201891
189	0x3c60e4d4	0.013726432
190	0x3e537018	0.20648229
191	0x3c46846f	0.012116536
192	0x3d333ec3	0.043761026
193	0x3c5b88c4	0.013399307
194	0x3cb29d60	0.021803558
195	0xbdf64e93	-0.120267056
196	0x3c6c7bb3	0.014433789
197	0x3a9f72fa	0.0012165003
198	0x3d40ed18	0.04710111
199	0x3d09c44d	0.033634473

lstm.weight_hh_l0 f4 [200, 50]
0	0xbfb399c0	-1.4031296
1	0xc001130b	-2.0167873
2	0x401c5b86	2.4430861
3	0x3dc50e49	0.09621865
4	0xbfe2c26d	-1.7715584
5	0xbf968ccc	-1.1761718
6	0x3f8460b2	1.0342009
7	0xbffd7366	-1.9800842
8	0x3fb8a64d	1.4425751
9	0x3fbd0c61	1.4769403
10	0xbfe112b1	-1.7583829
11	0x40005e3b	2.0057514
12	0xbfe88668	-1.8166018
13	0xbed8e3a4	-0.42361176
14	0x3fd82249	1.6885463
15	0xbf27d17d	-0.6555403
16	0x3f751b53	0.9574482
17	0xbf6fd801	-0.9368897
18	0x3f3ce2f5	0.7378381
19	0xc0362abf	-2.846359
20	0x40388d6c	2.8836317
21	0xc017239a	-2.361548
22	0x3f8cec91	1.1009694
23	0x401a580f	2.4116247
24	0x402eaac2	2.7291722
25	0xbf95b32b	-1.1695303
26	0x3f5e57d1	0.8685275
27	0x3ff24666	1.8927734
28	0x3fc62a1c	1.5481601
29	0x3f72df5b	0.94872063
30	0x40143f1b	2.3163517
31	0x3fb05c19	1.3778106
32	0xc00b1092	-2.1728864
33	0xbfa1c537	-1.263831
34	0xbfbdd7cb	-1.483148
35	0xc03f94a7	-2.993448
36	0x3fe96ba7	1.8235978
37	0xbf3e2d34	-0.74287724
38	0xbeb2fa27	-0.34956476
39	0x4021ffc0	2.5312347
40	0xbfb020f2	-1.3760054
41	0xbf7e058a	-0.992272
42	0x3fade1b9	1.358451
43	0xbfdf11bc	-1.7427287
44	0xbf2c589f	-0.67322725
45	0x3f654fd9	0.8957496
46	0xbf30adcc	-0.69015193
47	0x3f0b352f	0.54378027
48	0xbf89fae1	-1.0779687
49	0x4026ba43	2.6051185
50	0x3e37e29b	0.17957537
51	0x3f6a33ef	0.91485494
52	0xbf724875	-0.9464181
53	0xbd9d1dbe	-0.076716885
54	0x3f12592f	0.57167333
55	0x3e77258d	0.24135418
56	0xbec46f1d	-0.38366023
57	0x3e94268d	0.28935662
58	0xbf0141e6	-0.5049118
59	0xbf46df66	-0.7768463
60	0x3e20b78c	0.15695018
61	0xbf02eca1	-0.5114232
62	0x3f968975	1.1760699
63	0x3e0f4915	0.13992722
64	0xbf0d7578	-0.5525737
65	0x3e62cd7b	0.22148697
66	0xbe8e4b4d	-0.27791825
67	0x403702ef	2.859554
68	0xbe1d84ab	-0.1538264
69	0xbe151fd8	-0.14562929
70	0x3f97d3a8	1.1861467
71	0x3f9b9600	1.2155151
72	0xbedb06dd	-0.42778674
73	0xbfd2de41	-1.6474077
74	0xbf2e4edd	-0.68089086
75	0x400e3038	2.221693
76	0xbea61933	-0.324411
77	0x3f6dafee	0.9284657
78	0x3f0cb9e3	0.5497114
79	0xbf44d5b1	-0.7688857
80	0xbf41f748	-0.75767946
81	0xbe038f71	-0.12847687
82	0x3f00e907	0.5035557
83	0x403d32ab	2.9562175
84	0x3e0930bd	0.13397498
85	0xbeba7952	-0.36420685
86	0x3f9678d6	1.1755626
87	0x3eac8607	0.33696005
88	0xbf8f9053	-1.1215919
89	0xbfa1d915	-1.2644373
90	0x3e614966	0.22000656
91	0x3e0484a0	0.12941217
92	0xbdf5b565	-0.11997489
93	0xbd772e79	-0.060347054
94	0xbf6c5a27	-0.9232506
95	0xbf27c66d	-0.6553715
96	0x3e809d01	0.25119784
97	0xbf0f93ad	-0.5608471
98	0x3e1b0465	0.15138395
99	0xbf078a5e	-0.52945507
100	0x3d2e9912	0.042626448
101	0xbf5cadab	-0.86202496
102	0x3fd1e8a1	1.6399118
103	0x3e0c6971	0.13712098
104	0xbf7335b4	-0.9500382
105	0xbf8a3b86	-1.0799415
106	0x3e285c15	0.16441377
107	0xbfd1ede2	-1.6400721
108	0x3f70b5bc	0.94027305
109	0x3f411e29	0.75436646
110	0xbf3116ea	-0.6917559
111	0x3f3f97a5	0.74840766
112	0xbff5e73d	-1.9211193
113	0xbd9a9b2d	-0.07549129
114	0x3eec022b	0.46095404
115	0xbe5e9f43	-0.21740441
116	0x3d52f942	0.051507242
117	0xbd4dae7a	-0.050215222
118	0x3eda28d6	0.4260928
119	0xc026fd25	-2.6092007
120	0x4097ac71	4.7398
121	0xc02175be	-2.5228114
122	0xbf0a2802	-0.539673
123	0x3ec22703	0.3792039
124	0x400eb6ba	2.2299027
125	0xbfa0be62	-1.25581
126	0x3e15488d	0.14578457
127	0xbef11c0d	-0.47091714
128	0x3f9e6b42	1.2376482
129	0x3e7415e3	0.23836474
130	0x3f90dca7	1.1317338
131	0x3f22307b	0.63355225
132	0xc031f3e9	-2.780512
133	0xbeaaa5f2	-0.3332973
134	0xbfbaaf5b	-1.4584764
135	0xc08c78b4	-4.3897343
136	0x3eb17cec	0.3466562
137	0xbeec1727	-0.46111414
138	0xbe6c005f	-0.23047017
139	0x40390887	2.8911455
140	0xbf281c89	-0.6566854
141	0x3f390f54	0.72289014
142	0x3f311427	0.69171375
143	0xbeed62ed	-0.46364537
144	0xbf30e6d4	-0.69102216
145	0x3f7c90a0	0.9865818
146	0x3f2ef7bf	0.6834678
147	0x3f6bf824	0.9217551
148	0xbed0473b	-0.40679345
149	0x407ff208	3.9991474
150	0xbdbe925a	-0.09305258
151	0xbde487e8	-0.111587346
152	0x3d17b207	0.037035014
153	0xba364600	-0.000695318
154	0xbd1e0634	-0.038580135
155	0x3d0c3be4	0.034236804
156	0xbcb24723	-0.021762436
157	0x3da66254	0.08124223
158	0x3d9d507b	0.07681366
159	0x3df57299	0.119847484
160	0xbc9c1f5c	-0.019057922
161	0xbdfe27f0	-0.12409961
162	0xbc4d72fe	-0.012539623
163	0x3da3964f	0.079876535
164	0xbc8b12e9	-0.01697679
165	0xbd736b02	-0.059428222
166	0x3b874f1e	0.0041293046
167	0x3b863841	0.0040960615
168	0x3deb6a12	0.11494841
169	0xbc00330b	-0.00782467
170	0x3d3218b1	0.04348058
171	0xbd3a09b8	-0.045419425
172	0xbd21d614	-0.0395108
173	0x3d391820	0.045189023
174	0xbe047078	-0.12933528
175	0xbd8f589b	-0.06999322
176	0x38b9474b	8.834767e-05
177	0x3db770a2	0.0895703
178	0x3d983de3	0.07433679
179	0x3e038d82	0.1284695
180	0x3da0e85b	0.07856818
181	0xbe082943	-0.1329699
182	0xbd40ffc5	-0.04711892
183	0xbcf29d71	-0.02961609
184	0x3d0ee579	0.03488681
185	0xbdecb119	-0.11557216
186	0xbe07dbfc	-0.13267511
187	0x3dfe8b4e	0.12428914
188	0x3d617c11	0.05504996
189	0x3d20cee7	0.039259817
190	0xbdd9fad6	-0.10643546
191	0x3da9564d	0.08268414
192	0x3c9930c1	0.018700005
193	0xbda264dd	-0.079293944
194	0x3d2dee95	0.042463858
195	0xbdf8d896	-0.121506855
196	0x3df428b5	0.11921827
197	0x3de0da2c	0.10979113
198	0xbdbd74d3	-0.09250798
199	0xbdb28acc	-0.0871788
200	0x3ef99b5f	0.4875135
201	0x3f3ca7b1	0.73693377
202	0xbe0ce075	-0.13757499
203	0x3d70df49	0.05880669
204	0x3f086535	0.5327943
205	0x3e409ed4	0.18810588
206	0xbf59252e	-0.84822357
207	0x3f0e6b87	0.55632824
208	0xbf57c5a8	-0.84285975
209	0xbd149d54	-0.036282852
210	0x3aca0626	0.0015413209
211	0x3e10dc95	0.14146645
212	0xbe4b055a	-0.1982626
213	0x3f3ccb04	0.7374728
214	0xbd473475	-0.04863401
215	0x3f393a32	0.72354424
216	0xbf5914af	-0.84797186
217	0x3fa08211	1.2539693
218	0xbe735634	-0.23763353
219	0xbdd41dd9	-0.103572555
220	0x3f2359d5	0.6380895
221	0xbe8b9596	-0.27262563
222	0xbf2e3e2e	-0.6806363
223	0xbe679298	-0.22614515
224	0x3bacd2c0	0.005274147
225	0x3f53a87a	0.8267895
226	0xbf07f338	-0.531055
227	0xbf64594b	-0.8919875
228	0xbf1fc2b7	-0.62406486
229	0xbe419978	-0.189062
230	0xbe13ec1e	-0.1444554
231	0xbdd6dcb7	-0.10491317
232	0x3d8c3cac	0.0684751
233	0x3f4ad266	0.7922729
234	0x3ee9d431	0.45669702
235	0xbeee7ad8	-0.46578097
236	0xbf83b016	-1.0288112
237	0x3ee9dbdc	0.45675552
238	0x3f9936d8	1.1969862
239	0x3d179bd1	0.037013832
240	0x3f05ce5d	0.5226801
241	0x3f2171e7	0.63064426
242	0x3e5277b3	0.20553474
243	0x3f1e468b	0.6182639
244	0x3f24f21f	0.6443195
245	0x3d8939e3	0.06700494
246	0x3f105ee3	0.56394786
247	0x3dc2ba7e	0.09508227
248	0x3ed62935	0.41828313
249	0x3ee78704	0.45220196
250	0xbf2074de	-0.62678325
251	0xbf664669	-0.8995119
252	0x3f2eca73	0.68277663
253	0x3d5a05e6	0.05322828
254	0xbf7f72df	-0.99784654
255	0xbf7e0c39	-0.992374

lstm.bias_ih_l0 f4 [200]
0	0xc080d25e	-4.0256796
1	0xbfb71407	-1.4302987
2	0xc054a4e1	-3.3225634
3	0x3c19548c	0.009358536
4	0xbef500e1	-0.47852233
5	0xc018d307	-2.38788
6	0xc040b61c	-3.011115
7	0xbf79db63	-0.9760038
8	0xc0435e78	-3.052641
9	0xc06e774f	-3.726032
10	0xbf6b4c0e	-0.91912925
11	0xc0797fd5	-3.8984272
12	0xc001e3f5	-2.0295384
13	0xc0691922	-3.642159
14	0xbfa747da	-1.3068802
15	0x3e5e1f42	0.21691611
16	0xbf4f308f	-0.8093347
17	0xbfdb83f5	-1.7149645
18	0xbefd2197	-0.4943969
19	0xc06b65da	-3.6780915
20	0xbe9165eb	-0.2839807
21	0xc005b76a	-2.0893197
22	0xbf2cc78e	-0.67491996
23	0x3d2fa559	0.042882297
24	0xc0659c7b	-3.5876758
25	0xc0217a42	-2.523087
26	0xbed5aed7	-0.41734955
27	0x3debc7c9	0.11512715
28	0xc083635a	-4.105878
29	0xc04a2e10	-3.1590614
30	0xc0651076	-3.5791297
31	0xbf18c8e0	-0.5968151
32	0xbf53e07c	-0.8276441
33	0x3da81bfe	0.08208464
34	0xbf3bd963	-0.7337858
35	0xbf453620	-0.77035713
36	0x3d376875	0.044777352
37	0xbe204a7d	-0.15653415
38	0x3fae160b	1.3600477
39	0xc0280c69	-2.6257575
40	0xc01deea1	-2.4676898
41	0x3cd7c524	0.026339121
42	0x3d8ded64	0.06930044
43	0x3d0c8629	0.034307633
44	0x3d9ef3c7	0.077613406
45	0xbffaeb5f	-1.960308
46	0x3d817584	0.063212425
47	0xbf42983e	-0.76013553
48	0x3e31c358	0.17359674
49	0xbf42eedf	-0.7614574
50	0x3e97a99f	0.29621598
51	0xbf6cce33	-0.92502135
52	0x3d12311d	0.03569137
53	0x3d4c6e38	0.0499098
54	0xbec4cb0b	-0.3843616
55	0x3e1ed7aa	0.15511957
56	0xbe71e553	-0.23622636
57	0x3e32e280	0.17469215
58	0xbf6dfa47	-0.9296002
59	0x3e8570c9	0.2606261
60	0xbe9836cb	-0.29729304
61	0xbc30e141	-0.010795892
62	0xbd6ed86b	-0.05831186
63	0xbe30bfbc	-0.17260641
64	0xbece9f4b	-0.40355906
65	0xbd80b03f	-0.06283616
66	0xbe94df07	-0.29076406
67	0x3ebc59f6	0.36787385
68	0xbee533ca	-0.44766074
69	0x3e02b405	0.12763985
70	0x3d8e16b8	0.06937927
71	0x3d99a292	0.07501711
72	0xbd41bb3f	-0.047297712
73	0x3d8f6693	0.07001986
74	0xbeaaf950	-0.33393335
75	0xbeb075ea	-0.3446496
76	0xbf36f53a	-0.71467936
77	0xc00d5357	-2.2082117
78	0xbeef6109	-0.4675372
79	0xbe3ceabd	-0.1844892
80	0x3d3ce24d	0.046114255
81	0xbf03ab58	-0.51433325
82	0x3e7702c7	0.24122153
83	0x3e661a2f	0.22470926
84	0x3cca863e	0.024722215
85	0x3e1cb34f	0.15302776
86	0xbfde2a47	-1.7356652
87	0xbf198664	-0.5997069
88	0x3e183fcd	0.14868088
89	0x3e8cbc4e	0.27487415
90	0xbee89955	-0.45429483
91	0x3d5d9cf3	0.054104757
92	0xbe1ef288	-0.15522206
93	0xbeb5d0c7	-0.35510847
94	0xbf4c8b52	-0.79900086
95	0x3e39367f	0.18087195
96	0xbd26194d	-0.040551472
97	0xbe50d9d4	-0.20395595
98	0x3deecb85	0.11659912
99	0x3d9254f7	0.07145112
100	0xbd789ef4	-0.060698465
101	0xbe1bc00a	-0.15209976
102	0x3d13d6ea	0.03609363
103	0x3d49ca0f	0.049264964
104	0xbdf61f9e	-0.12017749
105	0x3e4b7757	0.19869743
106	0x3db421db	0.0879552
107	0x3d1685c6	0.03674867
108	0xbce861b2	-0.028366897
109	0x3da0a9fc	0.07844922
110	0x3d7ace64	0.061231986
111	0x3ddabed8	0.10680932
112	0xbbc8c0a5	-0.0061264806
113	0x3ce27856	0.027645271
114	0xbe07ac4c	-0.1324932
115	0x3dceff5c	0.101073
116	0x3c049c40	0.0080938935
117	0xbbe1d350	-0.0068916455
118	0xbe4a29fd	-0.1974258
119	0xbb6227c1	-0.0034508558
120	0x3e1fa429	0.15589966
121	0x3ccdbae2	0.025113527
122	0x3d75034f	0.05981761
123	0x3c8e5b72	0.017377589
124	0xbe47d6f8	-0.19515598
125	0x3ebe4060	0.3715849
126	0xbd89c767	-0.06727486
127	0x3d12b904	0.035820976
128	0x3d0dc158	0.034608215
129	0xbd2ee0f0	-0.042694986
130	0x3e0bec17	0.1366428
131	0x3c135ceb	0.008994321
132	0x3dac9386	0.08426575
133	0xbdfff612	-0.12498106
134	0x3d81e04b	0.063416086
135	0xbd79a6c7	-0.060950067
136	0x3df390fa	0.118928865
137	0x3f00fffa	0.5039059
138	0x3dfc526d	0.12320409
139	0xbca2e1c7	-0.01988305
140	0x3e9aab31	0.30208734
141	0xbd860a0d	-0.06544886
142	0xbd16f468	-0.036854178
143	0x3a893ea3	0.0010470938
144	0x3e57a327	0.21058331
145	0xbd814d1c	-0.063135356
146	0xbe4526a8	-0.19253027
147	0xbd21a2ba	-0.03946183
148	0x3ebe809d	0.372075
149	0xbdece7ab	-0.11567625
150	0xc01c1480	-2.4387512
151	0x3e158491	0.14601351
152	0xc02ac7ac	-2.668437
153	0x3dbf123e	0.09329651
154	0xc093f710	-4.623909
155	0xbf1d6349	-0.6147962
156	0x3c0dc499	0.00865283
157	0xbf40835b	-0.7520043
158	0x3d807704	0.062727004
159	0xbffa941a	-1.9576447
160	0xc082c8b0	-4.086998
161	0xbfaf8eb0	-1.371542
162	0xc000b2d7	-2.0109155
163	0x3e26ccdf	0.1628909
164	0xc08ed001	-4.462891
165	0xbbfe70cb	-0.007764911
166	0xc0920b22	-4.563859
167	0xc04c427b	-3.1915576
168	0x3e27d6ee	0.16390583
169	0xc0145a31	-2.3180048
170	0xbfbdbf1f	-1.482395
171	0xc046ac14	-3.1042528
172	0xc0988708	-4.7664833
173	0xc06120be	-3.5176234
174	0xc02d4837	-2.7075326
175	0xbf7193cb	-0.9436614
176	0x3d8ceb5d	0.068808295
177	0xc0a297c1	-5.0810246
178	0xbf169179	-0.58815724
179	0xbf724349	-0.9463392
180	0xc02cd409	-2.7004416
181	0xbf336694	-0.70078397
182	0xbfb6fa8c	-1.4295211
183	0xc0601744	-3.50142
184	0xbf159ac4	-0.5843928
185	0xbfeb0a5c	-1.8362536
186	0xc0a5c585	-5.1803613
187	0x3be0d924	0.0068618227
188	0xbca734d0	-0.020410925
189	0xc045d705	-3.0912488
190	0x3b945ee5	0.004527914
191	0xc09c8c02	-4.892091
192	0xbea517b2	-0.3224464
193	0xc0aed9b4	-5.464075
194	0xc0a1ee84	-5.0603657
195	0xbf478421	-0.7793599
196	0xc0a70d73	-5.2203918
197	0xbfe9a529	-1.8253528
198	0xbf200f8c	-0.6252372
199	0xbff3ab88	-1.9036722

lstm.bias_hh_l0 f4 [200]
0	0xc080211a	-4.0040407
1	0xbfb05cd7	-1.3778332
2	0xc0515ee3	-3.2714164
3	0xbe141818	-0.14462316
4	0xbf02f40c	-0.51153636
5	0xc0189ef1	-2.384701
6	0xc036e864	-2.857934
7	0xbf75fd17	-0.9608931
8	0xc0459eae	-3.08781
9	0xc06a8735	-3.6645024
10	0xbf4b54ba	-0.7942616
11	0xc071fe53	-3.7811477
12	0xbff365f9	-1.9015495
13	0xc065907a	-3.5869431
14	0xbfb2e3c7	-1.3975762
15	0x3d087a0e	0.033319525
16	0xbf4334fd	-0.7625273
17	0xbfdad4f7	-1.7096242
18	0xbf0d74b6	-0.5525621
19	0xc06a6814	-3.6626024
20	0xbed0c643	-0.40776262
21	0xc0053a5e	-2.0816875
22	0xbf32592c	-0.69667315
23	0xbd502c81	-0.050823692
24	0xc06b1139	-3.6729262
25	0xc02b4b7c	-2.6764822
26	0xbed922fd	-0.42409506
27	0x3e562257	0.20911537
28	0xc083ece7	-4.1226687
29	0xc0505704	-3.255311
30	0xc0676a76	-3.6158729
31	0xbeb6ea6b	-0.35725722
32	0xbf1a2a28	-0.60220575
33	0x3e550a77	0.20804773
34	0xbf56ac13	-0.83856314
35	0xbf5d9a16	-0.8656324
36	0x3e341423	0.17585807
37	0xbe79366a	-0.24337164
38	0x3fb339bd	1.4001995
39	0xc0260263	-2.5938957
40	0xc01ad819	-2.4194396
41	0x3cca54f2	0.024698708
42	0x3da400b6	0.08007948
43	0x3e3a123f	0.18171023
44	0x3e24c330	0.16090083
45	0xbffac883	-1.9592441
46	0x3d379f71	0.04482979
47	0xbf52d620	-0.8235798
48	0x3e25a074	0.1617449
49	0xbf3cdfa7	-0.73778766
50	0x3ea2d6b1	0.31804422
51	0xbf7f89f0	-0.9981985
52	0x3e326c22	0.17424062
53	0xbbb883a0	-0.0056309253
54	0xbee2c1ab	-0.44288382
55	0x3d826bd0	0.0636822
56	0xbe5e244d	-0.21693535
57	0xbce9b923	-0.028530663
58	0xbf4b2401	-0.7935181
59	0x3d940a54	0.072285324
60	0xbe9d01eb	-0.30665526
61	0x3e3c40e5	0.1838413
62	0xbe2e52dc	-0.17023796
63	0xbd09a382	-0.0336032
64	0xbf035e8f	-0.5131616
65	0x3d7f8016	0.06237801
66	0xbe0f7002	-0.14007571
67	0x3e1123b0	0.1417377
68	0xbf213fcf	-0.6298799
69	0x3eaf9735	0.3429505
70	0x3e8334ac	0.25626123
71	0x3e67c761	0.22634651
72	0x3d015342	0.03157354
73	0x3c9b04ea	0.018923242
74	0xbe2ba307	-0.16761409
75	0xbe6b8c50	-0.23002744
76	0xbf5fb036	-0.8737825
77	0xbffff884	-1.9997716
78	0xbeb6cb97	-0.35702202
79	0x3c6ecbd4	0.014574964
80	0x3d85c1ff	0.065311424
81	0xbe8c734e	-0.2743172
82	0x3e81082c	0.25201547
83	0x3e16bca9	0.14720406
84	0xbdcb17ca	-0.09916647
85	0x3e3819a3	0.1797853
86	0xbff15821	-1.885502
87	0xbf2cf6e0	-0.675642
88	0x3e82c05b	0.2553738
89	0x3e8deea3	0.27721128
90	0xbee221b6	-0.44166344
91	0xbd1fbd49	-0.038998876
92	0x3c1c607f	0.009544491
93	0xbf0a1a81	-0.5394669
94	0xbf805db1	-1.0028592
95	0x3e007b74	0.12547094
96	0xbe7cdad2	-0.24692848
97	0xbe25a0f8	-0.16174686
98	0x3dca3355	0.09873072
99	0x3e038687	0.12844287
100	0xbd377760	-0.04479158
101	0x3d7898ea	0.060692705
102	0x3df315f5	0.11869422
103	0x3dcc7fbd	0.09985302
104	0xbdae83ee	-0.08521257
105	0x3e53aa29	0.2067038
106	0xbd983b05	-0.07433132
107	0x3c8a744f	0.016901163
108	0xbda6ff0c	-0.08154115
109	0x3d2e8115	0.04260357
110	0x3da585e5	0.08082179
111	0xbc91cd10	-0.017797977
112	0x3d3d54e1	0.046223525
113	0x3e3b7529	0.18306412
114	0x3de5b25a	0.112156585
115	0x3d936fac	0.07199034
116	0xbd80d349	-0.062902994
117	0x3d085a62	0.03328932
118	0xbec66418	-0.3874824
119	0x3dd0a418	0.101875484
120	0xbd679ebf	-0.056547876
121	0xbdf58240	-0.11987734
122	0x3e00c5b1	0.12575413
123	0xbb2cc06a	-0.0026359805
124	0xbde677df	-0.11253332
125	0x3e3089a2	0.17240003
126	0xbd9fcaa5	-0.07802323
127	0x3c594700	0.013261557
128	0xbc6fe820	-0.014642745
129	0x3d9f7510	0.07786
130	0x3d8f88ef	0.0700854
131	0xbdd03536	-0.10166399
132	0xbd1a1438	-0.03761694
133	0x3e0af0c7	0.13568412
134	0xbe0ad13c	-0.13556379
135	0x3db5f675	0.088848986
136	0xbe02dd3c	-0.12779707
137	0x3f00e972	0.5035621
138	0x3de9589d	0.11393855
139	0xbdb43679	-0.08799452
140	0x3ed83cd3	0.42233905
141	0xbcfdd014	-0.030983008
142	0x3dbf89cb	0.09352454
143	0xbe05b2f9	-0.13056554
144	0x3dfc0733	0.12306061
145	0x3e02d8cf	0.12778018
146	0x3d4e59a5	0.05037846
147	0x3dbfd3aa	0.093665436
148	0x3e4a0e59	0.19732036
149	0x3d8769cc	0.06611976
150	0xc010faf3	-2.2653167
151	0xbd1ff6ae	-0.03905361
152	0xc03037d2	-2.753407
153	0xbb5947de	-0.0033154408
154	0xc09531c0	-4.662323
155	0xbefa7d7d	-0.48923865
156	0x3d6d394e	0.057915978
157	0xbf68e0cd	-0.9096802
158	0x3e1cc19f	0.15308236
159	0xc0070364	-2.109582
160	0xc0860200	-4.187744
161	0xbfbca92f	-1.4739131
162	0xc00126ad	-2.0179856
163	0x3e47b789	0.19503607
164	0xc08ac37f	-4.3363643
165	0x3e4c94ff	0.19978712
166	0xc08eeff3	-4.4667907
167	0xc0530c0d	-3.2976105
168	0x3b150815	0.0022740413
169	0xc01e4957	-2.4732263
170	0xbfb96361	-1.4483453
171	0xc0457582	-3.085297
172	0xc09d25f6	-4.910884
173	0xc063249c	-3.5491095
174	0xc02e354b	-2.7220027
175	0xbf54d22d	-0.831332
176	0x3d0e9b2e	0.03481596
177	0xc0a28aaa	-5.079427
178	0xbf10b625	-0.5652793
179	0xbf87adbc	-1.0599895
180	0xc029289b	-2.6431034
181	0xbf1a1162	-0.60182774
182	0xbfb42b6e	-1.4075754
183	0xc05a4fac	-3.4111128
184	0xbf06d698	-0.52671194
185	0xbff09520	-1.8795509
186	0xc0a522c1	-5.1604924
187	0x3e1c2856	0.15249762
188	0xbc99a5a7	-0.018755747
189	0xc0454a05	-3.0826428
190	0x3b81b208	0.0039579906
191	0xc09c8364	-4.891039
192	0xbf10a41c	-0.5650041
193	0xc0ac521b	-5.3850226
194	0xc0a0a400	-5.0200195
195	0xbf79cc87	-0.9757771
196	0xc0a7b83b	-5.241239
197	0xbff52633	-1.9152282
198	0xbf36e82c	-0.71448016
199	0xbff4a118	-1.9111662

linear.weight f4 [1, 50]
0	0xc1f723a1	-30.892397
1	0xc1c2e8b5	-24.363626
2	0x41f32d3d	30.397089
3	0xbdaad63a	-0.08341642
4	0xc1ec76b8	-29.557968
5	0xc1ae5325	-21.790598
6	0x41c6a00b	24.828146
7	0xc1c2c244	-24.344856
8	0x41cae0fb	25.359854
9	0x41edfe37	29.749128
10	0xc1d36683	-26.425055
11	0x41dfad59	27.959642
12	0xc180e2f8	-16.110825
13	0xc1cd4baf	-25.661955
14	0x41e8404c	29.031395
15	0xc1baa1df	-23.329039
16	0x41ece84b	29.613424
17	0xc1c3a0ec	-24.453575
18	0x41b09dc6	22.077038
19	0xc1fd7663	-31.682806
20	0x41ce21e0	25.76654
21	0xc1dbbdf3	-27.467749
22	0x41f6f902	30.871586
23	0x41ddf7f2	27.746067
24	0x41fd433d	31.657831
25	0xc199dc64	-19.232613
26	0x41c15464	24.166206
27	0x42032887	32.789577
28	0x41dc0d7b	27.506582
29	0x41d10e7f	26.132078
30	0x41f7f0bf	30.992552
31	0x41b6782d	22.80868
32	0xc1a096a1	-20.07355
33	0xc1cddf23	-25.733953
34	0xc1c01d0b	-24.014181
35	0xc1d876ec	-27.058067
36	0x41fd1100	31.6333
37	0xc1ba4a91	-23.28641
38	0xbe6d2378	-0.23158062
39	0x41dd0367	27.626661
40	0xc1c45ddc	-24.54583
41	0xc1fe53d4	-31.790932
42	0x41607f85	14.031133
43	0xc208c65b	-34.193707
44	0xc1f69644	-30.823372
45	0x4163e9f7	14.24462
46	0xc2061584	-33.52101
47	0x414c15d7	12.755332
48	0xc1c03556	-24.026043
49	0x41d940e5	27.156687
